…
https://localhost:8080/"},"executionInfo":{"status":"ok","timestamp":1617636369644,"user_tz":-120,"elapsed":2674,"user":{"displayName":"Alessio Iocca","photoUrl":"","userId":"18192303090570177873"}},"outputId":"ffbef351-8ba8-44f7-f675-d99fcfcfe874"},"source":["NN.summary()"],"execution_count":null,"outputs":[{"output_type":"stream","text":["Model: \"NN\"\n","_________________________________________________________________\n","Layer (type)                 Output Shape              Param #   \n","=================================================================\n","dense (Dense)                (None, 64)                4288      \n","_________________________________________________________________\n","activation (Activation)      (None, 64)                0         \n","_________________________________________________________________\n","dense_1 (Dense)              (None, 32)                2080      \n","_________________________________________________________________\n","activation_1 (Activation)    (None, 32)                0         \n","_________________________________________________________________\n","dense_2 (Dense)              (None, 32)                1056      \n","_________________________________________________________________\n","activation_2 (Activation)    (None, 32)                0         \n","_________________________________________________________________\n","dense_3 (Dense)              (None, 1)                 33        \n","=================================================================\n","Total params: 7,457\n","Trainable params: 7,457\n","Non-trainable params: 0\n","_________________________________________________________________\n"],"name":"stdout"}]},{"cell_type":"code","metadata":{"id":"pjYLCYW6qq4y"},"source":["class PDGM_Cell(Layer):\n","\n","  def __init__(self, units, states_size, lstm,  NN,
…
